assets/iotV3.tflite (tflite, 91312 bytes, 8 tensors)

unknown_0 f4 [100]
000000 3a 24 c0 be e7 36 09 bd 1d d8 f5 bd 00 00 00 00
       -0.3752764 -0.033499625 -0.12004111 0.0
000010 a6 ff e7 bd a5 be 9b be 8a 63 28 be 80 aa ac be
       -0.11328058 -0.30418888 -0.16444221 -0.3372383
000020 81 c5 b4 bc 56 e1 9f be 00 00 00 00 20 ab de bd
       -0.022066833 -0.31226605 0.0 -0.10872483
000030 90 79 f9 bd 97 fc 2e 3d da 10 96 bd 08 f6 ae bd
       -0.12181389 0.042721357 -0.07327433 -0.085430205
000040 0c a2 70 39 d5 5f e7 bc e9 43 a8 be c0 b8 b4 bc
       0.00022948551 -0.028243938 -0.3286431 -0.022060752
000050 d4 84 82 bd 96 36 d3 bd 9a 2c 0f be 98 65 f5 be
       -0.06372991 -0.10313146 -0.13981858 -0.47929072
000060 c0 0f 71 bd c2 52 d5 bd 45 49 72 bd 00 00 00 00
       -0.05885291 -0.104161754 -0.059151907 0.0
000070 26 45 d5 bd c2 c6 96 be d7 c3 34 bd 25 07 fe bc
       -0.1041358 -0.29448515 -0.04413208 -0.031009266
000080 44 e5 bf bb fe ff d2 bc cf 06 e7 bb 8f 1f e5 bd
       -0.005856188 -0.025756832 -0.007050372 -0.1118766
000090 64 a4 64 be 73 0d fd bc dd 12 88 be 2f 0e 37 be
       -0.22328335 -0.030890202 -0.26576892 -0.17876504
0000a0 ba b0 28 be e0 cf 5d bd 78 c4 f3 bd 3b 0c 8f be
       -0.16473666 -0.054153323 -0.11902708 -0.2793902
0000b0 e4 d9 a3 bd fa 64 a6 bd b3 39 01 be 6b 68 89 be
       -0.08000544 -0.081247285 -0.12619667 -0.26837477
0000c0 f5 20 67 3d 10 3a ff 3c 6d ce 9a bd 31 05 81 3c
       0.056427915 0.031155616 -0.07558904 0.015749546
0000d0 df f2 8e bd f6 95 d7 bd 00 00 00 00 80 62 30 bd
       -0.06979918 -0.1052665 0.0 -0.043062687
0000e0 3b 19 dd bc 0b ec 08 be ef c6 47 3d c2 82 ad bd
       -0.02698957 -0.13371293 0.048773702 -0.08472206
0000f0 90 c6 6b be c4 3b 73 38 33 59 30 be 2b 11 a0 be
       -0.23024964 5.7991376e-05 -0.17221527 -0.31263098
000100 72 1a f0 bc b6 1e f7 bc 7f 31 eb bc fd 66 74 bd
       -0.029309485 -0.030166011 -0.028710125 -0.05966853
000110 55 f8 cf bd 78 a8 28 bd 8e bf 7e bd f5 42 a2 bd
       -0.101547875 -0.04117629 -0.0621944 -0.07922927
000120 a7 af 07 be 2a 9f 83 bd cc cb 03 be 7d bd eb 3b
       -0.132506 -0.064268425 -0.12870711 0.0071942196
000130 1e 9f b8 bc bc d4 d9 bd 00 00 00 00 ba 49 cf bd
       -0.02253681 -0.10636279 0.0 -0.10121484
000140 17 3e 3a 3d 29 fb bd bd 05 47 5f be 18 5e a5 bc
       0.04546937 -0.092764206 -0.21804436 -0.020186469
000150 84 b0 3f bd 02 53 7b bd e2 09 3b 3d af 13 c2 be
       -0.046799198 -0.06135846 0.04566372 -0.37905642
000160 db df 1c be 84 c9 33 be e0 e2 11 be d6 c4 3a bd
       -0.15319769 -0.17557341 -0.14246702 -0.045597874
000170 72 23 b3 bd 9b 8c 39 be 58 9d bf bd 69 c4 8d 3d
       -0.08746995 -0.18120043 -0.09356183 0.06922228
000180 1a d2 a8 be b8 82 29 bd 65 2b 12 be d0 74 08 be
       -0.32972795 -0.04138443 -0.14274366 -0.1332581

unknown_2 f4 [100]
000000 5b 4d 8f bd a2 e9 fb bd 1e 92 89 3e c9 e7 6b 3e
       -0.06997176 -0.12300421 0.2686929 0.23037638
000010 2e 7d 03 3e 28 4b 68 bd 5c 07 b7 be bb 31 91 3e
       0.12840721 -0.0567123 -0.35747802 0.28358254
000020 48 69 56 be 4b c4 11 bf 05 cb 1f 3e 85 c0 c3 bd
       -0.20938599 -0.56940144 0.1560479 -0.095582046
000030 89 ee b6 3c 18 25 4f 3e 97 98 a3 bd 53 90 c6 3d
       0.02233054 0.20228994 -0.079880886 0.096954964
000040 10 80 48 3e bc 01 23 be 89 da ef 3e a8 38 00 bf
       0.19580102 -0.1591863 0.46846417 -0.5008645
000050 15 62 18 be 32 a5 bb bd 2d 7a f6 bd f5 ae bc bd
       -0.14881165 -0.09162368 -0.12035022 -0.09213058
000060 98 1c d1 3d 4d 8c f9 bc 07 96 5c 3e e9 97 79 3e
       0.10210532 -0.030462408 0.21541606 0.24374355
000070 ea 97 eb bd 7d a3 94 bd e9 42 7a be d7 98 14 be
       -0.11503585 -0.072577454 -0.24439587 -0.14511429
000080 40 86 29 bc 5b 64 7e bd 50 75 6f be 70 cf 84 3e
       -0.010346949 -0.062107425 -0.23384595 0.25939512
000090 2f 45 49 3d 06 d8 2b be d5 96 fd be 2b 09 a6 3e
       0.049138244 -0.16781625 -0.49529138 0.3242887
0000a0 44 db 95 3e 7c 77 ce 3d 30 45 d7 bc 84 eb c6 be
       0.2926885 0.100813836 -0.026278108 -0.3885156
0000b0 97 3a a9 be a7 87 89 be a1 a0 31 3e f4 85 8b 3e
       -0.33052513 -0.26861307 0.17346431 0.27250636
0000c0 ba b4 18 be b6 33 38 be 68 c3 5e 3c 29 cc cb bd
       -0.14912692 -0.17988476 0.013596393 -0.0995105
0000d0 2e fe b8 be bd ac 5c 3d ed db 22 be a3 b9 18 3d
       -0.36131424 0.053875674 -0.15904208 0.037286412
0000e0 e4 9d 62 be 8a fe 05 3f 78 d7 81 bd e8 d4 06 be
       -0.22130543 0.5234152 -0.063399255 -0.13167155
0000f0 13 62 9c ba 94 12 15 3e 5b ac 96 3e 79 43 24 be
       -0.0011931084 0.14557868 0.29428372 -0.16041364
000100 dd eb 80 3e f1 34 cb bd 53 0b 06 be dc ad 5f bd
       0.2517995 -0.09922207 -0.13090257 -0.054609165
000110 d5 a9 8e bd 0f 3b 96 be 77 ee 1a bd 84 4c 71 bd
       -0.06965987 -0.29341933 -0.037825074 -0.05891086
000120 ce ef 9c 3d 0f f4 c0 bd 23 f9 10 3e f1 c0 a9 bd
       0.076629266 -0.094215505 0.14157538 -0.08288754
000130 cd 5b 50 be 85 42 12 bf 41 3e b7 3e c3 49 c2 3e
       -0.20347519 -0.5713275 0.35789683 0.379469
000140 60 0b 19 bf 77 34 af bd 3b b5 4d be 39 59 73 be
       -0.5978298 -0.08554929 -0.20088665 -0.23764504
000150 b3 b8 5b be c8 13 2c be f5 b2 dc bd 0a 69 c1 bd
       -0.21457176 -0.16804421 -0.10776321 -0.09443863
000160 4b 15 e3 3d 98 86 24 3e c0 9a a3 bd 02 8c c8 bd
       0.11088046 0.16066968 -0.079885006 -0.09792329
000170 54 3f d4 be 7b 7e 09 bf b6 18 8a bc 1a 96 03 be
       -0.41454566 -0.5370862 -0.016857486 -0.12850228
000180 da c0 e6 bd 83 fa 0e be 15 6b 45 be 3f 50 c9 be
       -0.11267252 -0.1396275 -0.1927913 -0.39319035

unknown_4 f4 [100]
000000 94 e1 22 be 14 a5 c0 3c 8d 19 ff 3c 9e bc ff bd
       -0.15906364 0.023516215 0.031140113 -0.12487148
000010 8d 35 f8 bd 20 a1 b2 3c d6 39 b6 3e 87 0d ea be
       -0.12119589 0.021805346 0.35591 -0.45713446
000020 d0 0e d3 be 5c f7 08 bf 1a 2d 0c 3e 0e f5 a2 bd
       -0.4122224 -0.5350244 0.1368908 -0.07956897
000030 86 5d 85 be 32 de d1 be 85 a0 c4 3d a4 bd 7c 3d
       -0.26047915 -0.40989834 0.09600929 0.061704293
000040 3e 1f 0e be c9 33 b0 be 1e cb 62 3e ea 13 cf 3e
       -0.13879105 -0.3441451 0.22147796 0.4044488
000050 2d 93 9a 3d 88 d8 6f be db af dc be 8a ec 11 3f
       0.07547603 -0.23422444 -0.43102917 0.57001555
000060 b3 c9 9a 3e 82 d5 df bd 83 9e 0b be f5 37 96 be
       0.3023201 -0.10929395 -0.13634686 -0.29339567
000070 a0 ab 93 be 1e ad 92 be 96 52 39 3f f7 ea 5b 3e
       -0.28841877 -0.28647703 0.7239164 0.2147635
000080 62 3a d8 3d 99 1c 51 bd 17 83 e3 bd 56 ab 7c bd
       0.10558011 -0.051052663 -0.11108988 -0.061686836
000090 c4 24 1f 3e d0 ad ae be 5e d6 2a 3f 55 88 86 3d
       0.15541369 -0.34116983 0.6673335 0.06568972
0000a0 d2 82 a1 3e 04 5f 04 bf 3e 44 a1 be c1 4b 2f bd
       0.3154512 -0.5170748 -0.31497377 -0.042796854
0000b0 e5 90 a0 be 56 74 e4 3d 15 ce f4 bd 59 4e 0c 3f
       -0.31360546 0.11155002 -0.119533695 0.5480705
0000c0 17 7e 9b 3d a5 e8 f9 bd f8 47 c5 3c 3b a7 2c 3b
       0.07592409 -0.122025765 0.024082169 0.0026344794
0000d0 36 52 19 bf 89 3a 2d 3e d5 80 d9 bd 2b c9 1b be
       -0.5989107 0.1691686 -0.10620276 -0.15213458
0000e0 9c ff 0c be 2a d9 04 bd 46 d0 14 be 47 3c f3 bd
       -0.13769382 -0.032433666 -0.14532575 -0.11876731
0000f0 b0 77 e6 be 8d ec 41 3e 80 91 9b 3e b3 33 a0 be
       -0.4501319 0.18937893 0.30384445 -0.31289443
000100 4e 2c 89 be 80 66 4d 3c 5a 4f af bd c3 8b 67 bd
       -0.26791614 0.012536645 -0.08560057 -0.05652977
000110 cf 93 3e 3e ba 9a 38 be 82 74 b8 be 04 67 f8 bc
       0.18611072 -0.18027773 -0.36026388 -0.03032256
000120 a8 b6 04 3e ee 16 b6 3e 06 e5 02 be e8 7b 96 3e
       0.12960303 0.3556437 -0.12782678 0.29391408
000130 fe b1 29 bf d1 97 00 bf 78 5c 80 be 88 9c 48 be
       -0.6628722 -0.50231653 -0.25070548 -0.19590962
000140 9b 9b 13 3f e4 d5 cd 3e 5d dc 18 3f 62 f4 e1 be
       0.5765931 0.40202248 0.5971125 -0.44131762
000150 6d a1 92 3e 5d f9 a6 3b 3e bc 42 3e bc 35 14 3f
       0.28638783 0.0050956444 0.19017121 0.5789449
000160 98 24 20 be 7e 13 b8 be 88 45 41 be 51 d3 bb bd
       -0.1563896 -0.3595237 -0.1887418 -0.09171165
000170 d2 84 0a be b6 5c 61 be 69 68 87 be fd d5 d3 bd
       -0.1352723 -0.22008023 -0.26446846 -0.103435494
000180 3f 6b 25 be 65 80 27 3d 1d 24 5b 3e c6 a1 9a 3e
       -0.16154192 0.04089393 0.21400495 0.30201548

unknown_6 f4 [8]
000000 82 93 03 bf ef 03 05 bf 6f bc ce be 77 24 b7 be
       -0.51396954 -0.5195913 -0.40378138 -0.35770008
000010 f2 2b 42 bf fc f2 f5 bc cb ee 99 be f0 05 7a 3f
       -0.75848305 -0.03002309 -0.30064997 0.9766531

sequential_20/dense_73/MatMul;StatefulPartitionedCall/sequential_20/dense_73/MatMul f4 [100, 9]
000000 5b f0 38 3d 99 03 3c be 73 64 40 bd 88 c7 64 bd
       0.045151096 -0.18360747 -0.046970796 -0.05585435
000010 99 3a 8d 3e fa 78 1b be 8b 6b 46 be de ad b5 3e
       0.2758377 -0.15182868 -0.19376962 0.35484213
000020 7d 2b 03 bf d3 f2 9c 3e 12 b9 a0 be 98 a6 cf 3e
       -0.5123823 0.3065401 -0.31391197 0.40556788
000030 25 49 ca 3e f8 f4 bd 3d ea c3 62 bd b6 58 45 bf
       0.3950893 0.0927524 -0.05536262 -0.7708849
000040 ba 66 8a 3f b6 02 2e bf 29 6a 3b bd b0 be 92 b7
       1.08126 -0.67972887 -0.04575554 -1.7493352e-05
000050 fd 0a 96 3c c8 3e fc bc 80 53 33 3e ff 3a c6 3c
       0.018315786 -0.030791655 0.17512321 0.024198053
000060 ad 7e 8a 3f 80 26 8c bf b4 ca fe 3f 93 dd 25 be
       1.0819908 -1.0949249 1.990561 -0.16197805
000070 1f 91 4c be 26 61 f7 3d be 7e 84 3d 38 6e eb bc
       -0.19977234 0.120790765 0.06469487 -0.02873908
000080 9a ae 61 be e2 2c 9a bd d5 09 66 3e 9d 26 05 3e
       -0.22039261 -0.07528092 0.22464688 0.13003011
000090 c7 ec 8a be 41 c4 d5 bd 96 4b 68 3e b2 66 a4 be
       -0.27133772 -0.10437823 0.22685084 -0.321096
0000a0 7d a1 55 bd f0 47 c0 bd d7 8f 53 bf ac 95 1b c0
       -0.05215596 -0.09388721 -0.8264136 -2.4310102
0000b0 63 77 08 3f 45 7c 8d bd 92 ba 08 3e 96 dd c3 bd
       0.5330717 -0.06908468 0.13352421 -0.095637485
0000c0 4f 47 2f 3e 6c a9 c5 bd 4c af 46 be 99 e1 ce 3e
       0.17117046 -0.09651455 -0.19402808 0.40406492
0000d0 f0 18 99 be bc 88 0b bf 4a d9 e1 bd 72 4d 71 bc
       -0.29901838 -0.54505515 -0.11027773 -0.014727937
0000e0 46 c2 85 3a a6 ea 27 bd 34 5c 6a bd 20 c9 69 3b
       0.0010204993 -0.040995263 -0.057216838 0.0035672858
0000f0 f8 7e 69 c0 87 b4 89 3f 25 1b 0c 3f 3f 9b 00 3e
       -3.6483746 1.0758218 0.5472892 0.12559222
000100 1f 64 c8 bd 52 56 a3 bc 54 04 92 bd 75 6e 11 3d
       -0.097847216 -0.019938622 -0.07129732 0.03550573
000110 45 45 3a be df 8c e2 3e 87 3c d1 be 87 e1 0e bf
       -0.18190487 0.442481 -0.4086649 -0.5581288
000120 cf d8 03 3d a6 63 5a bd 0b ac 15 3d 9d 97 3d 3e
       0.032189187 -0.05331769 0.036541026 0.18514867
000130 e1 53 71 3d 35 51 6b be 56 b0 bc 3d d6 c6 ec 3c
       0.058917884 -0.22980197 0.09213321 0.028903406
000140 1f 83 b9 3c 78 7e 9d 3e 47 af 92 3c e5 e3 aa bd
       0.022645531 0.3076055 0.017905844 -0.08344249
000150 ac 75 fb 3a 4f c8 30 be c9 6d 2a be 63 54 69 3f
       0.0019184849 -0.17263912 -0.16643442 0.9114439
000160 a6 22 12 bf b0 b5 66 bf 01 05 37 3e af 88 2f be
       -0.5708412 -0.90120983 0.17873003 -0.17141984
000170 2f e6 16 3e 08 53 67 be 11 f5 15 3e a5 0d 5d be
       0.14736246 -0.22590268 0.14644267 -0.21587236
000180 61 94 0a be e0 0e 35 be c4 b3 64 bd c6 53 af be
       -0.13533165 -0.17681456 -0.0558355 -0.34243602
000190 0d 21 5e bd fb 63 b0 3e b0 77 61 bb ec 6c 46 3e
       -0.05423074 0.3445128 -0.0034403615 0.19377488
0001a0 92 c9 8f bd fb 34 11 40 75 4f 62 bf 70 fe 40 bf
       -0.07020868 2.2688587 -0.8840249 -0.7538824
0001b0 72 b5 d5 3e 03 f3 03 3c 1e 15 47 3d 8e ba ed 3e
       0.41739994 0.008053544 0.048604123 0.46431392
0001c0 26 30 3a 3e 1c 05 3c be 20 a6 06 3e b3 e8 85 3f
       0.1818243 -0.18361324 0.13149309 1.0461639
0001d0 8b 5d 5f 3e db a5 71 be 71 72 ad be 6d 48 13 bf
       0.21813028 -0.23598425 -0.33876374 -0.5753239
0001e0 d6 03 72 be af 5a ce be 6b 10 e9 bc 8e 59 72 bf
       -0.23634276 -0.4030356 -0.028450212 -0.946679
0001f0 a9 cb 45 3e 03 83 8a 3e eb 49 e2 bd 12 04 07 3f
       0.19315971 0.2705308 -0.11049255 0.52740586
000200 0e 07 ec bd e5 63 dd 3d 46 28 0b 3f 57 30 28 be
       -0.11524783 0.10810069 0.5435833 -0.1642469
000210 26 76 71 3f 12 b9 3f 3e c7 f6 34 3f e1 46 11 bd
       0.94320905 0.18722942 0.7068905 -0.035467986
000220 1f 93 87 bc 12 5d 6b bf 7d 82 b2 3d 91 da 3f bd
       -0.016549645 -0.9193889 0.08716295 -0.0468393
000230 5a 47 87 bd 21 7f 42 bf c5 af 9a 3f 05 95 68 be
       -0.06605406 -0.75975233 1.2084891 -0.22713096
000240 00 83 8d be c4 0c 04 3e e1 24 83 3e 1e ee 83 bc
       -0.27639008 0.12895495 0.25614074 -0.016104754
000250 5b a7 ed bb 4f b1 4c bc 97 46 04 40 2c da 3c 40
       -0.0072526163 -0.012493446 2.0668085 2.9508162
000260 89 f8 73 3c 16 f9 b1 be 7c fb 4d 3e 3a f5 d5 bd
       0.014890798 -0.3476035 0.20115465 -0.10447164
000270 2a 3e f2 be f2 6a 61 3e 6d bb a9 bd b5 35 08 bf
       -0.47313052 0.22013453 -0.08287702 -0.5320695
000280 b9 f1 ee 3f 72 62 f0 3d d1 39 8a 3c 22 98 16 be
       1.8667518 0.11737527 0.016873272 -0.14706472
000290 63 5f 9e 3e 9c 61 53 bd 6e df 85 3d 37 0c 80 bd
       0.3093215 -0.05160676 0.065367565 -0.0625233
0002a0 03 5c a3 3f ce 0a 07 3f 4e 7d c7 3d 77 79 59 3d
       1.2762455 0.5275086 0.09740697 0.053094354
0002b0 8b 02 15 be d7 40 fd 3c 93 be d2 3d d5 d4 37 3e
       -0.14551751 0.030914707 0.102902554 0.17952283
0002c0 25 2f 4f be f0 45 17 bd 63 b2 26 be 82 a3 e6 bd
       -0.20232828 -0.036931932 -0.16278987 -0.112616554
0002d0 ae 31 28 3e 83 10 96 bd 85 b8 05 bc 5e 62 a2 3c
       0.16425201 -0.07327368 -0.008161669 0.019822296
0002e0 dc 40 11 3d b4 ac 86 be 5f 3d 2a 3e 50 b3 25 b9
       0.035462245 -0.26303637 0.16624974 -0.00015802425
0002f0 8e 73 13 be 05 35 d8 bd ea 24 80 be dd b5 dd 3e
       -0.1439955 -0.10556988 -0.25028163 0.43302813
000300 a7 5f 8d 3e a2 a1 2e be cb 3e a4 bc 0f e4 fe bf
       0.2761204 -0.17053846 -0.020049473 -1.9913348
000310 38 1c d3 be ef f7 91 3f a5 9b ed 3d 36 4d 8f bc
       -0.41232467 1.1403788 0.116019525 -0.017492872
000320 aa 97 ac be db f6 3c bd fd bd 40 3e cb 02 30 3c
       -0.3370946 -0.046133857 0.18822475 0.010742853
000330 29 58 b9 3e 11 26 d1 3d 3b 18 96 bf 71 97 39 be
       0.36200073 0.10212339 -1.1726145 -0.18124177
000340 57 f3 05 bd ca a5 d8 3e 86 46 bd 3d 28 d2 28 3e
       -0.03270277 0.42313987 0.09241967 0.16486418
000350 c6 3e 15 be ec 55 bf bc 0c eb e4 bd a7 da 32 3f
       -0.14574727 -0.0233564 -0.11177644 0.69864887
000360 41 c6 88 bd 07 f4 11 be 8a 0d 9e be 79 66 99 be
       -0.06678439 -0.14253245 -0.30869704 -0.29960993
000370 27 31 ad be 18 af 92 be 2f 4d 18 bc 3f 48 5c 3e
       -0.33826563 -0.2864921 -0.009295746 0.21511935
000380 7f 0e 7a bf 9a ed d2 3c 14 67 ea 3c a1 66 65 bd
       -0.9767837 0.025748063 0.028613605 -0.056006078
000390 67 6c c4 3a 66 57 19 be 10 cd bf 3c b6 1f 04 40
       0.001498592 -0.14974746 0.023413211 2.0644355
0003a0 3c 3f 98 bf 65 0b d9 3f 85 c2 3d 3d b1 13 11 bd
       -1.1894298 1.6956602 0.046328086 -0.03541917
0003b0 47 2c 34 3e f0 72 a7 bd 55 67 9b 3c 56 b5 64 3c
       0.17595015 -0.081762195 0.018970171 0.0139592495
0003c0 7a 32 84 40 bd 11 ed 3f 64 1b 5f be f5 fa 1f be
       4.1311617 1.8521038 -0.21787792 -0.15623076
0003d0 a0 56 57 bd f3 2f 0a 3e da 9c d0 3d e8 57 83 3c
       -0.052572846 0.13494854 0.10186167 0.016033128
0003e0 1b 52 27 be f4 cb 33 3d b0 ea 5c be b8 1c ae bc
       -0.16339915 0.043895677 -0.21573901 -0.021253929
0003f0 43 75 1b be 62 bf 20 3e 06 63 1c bd 07 61 3f 3e
       -0.1518145 0.15698007 -0.038180374 0.18689357

sequential_20/dense_74/MatMul;StatefulPartitionedCall/sequential_20/dense_74/MatMul f4 [100, 100]
000000 75 a9 fe bd 20 30 a7 3d 3e 62 48 3b 40 2e 09 bb
       -0.12434665 0.08163476 0.0030576135 -0.0020932108
000010 e0 f7 4a bc 9d 7e 39 be d1 e2 8a bd c1 e1 62 be
       -0.0123882 -0.18114705 -0.06781543 -0.22156431
000020 56 6d 1d 3e 99 e9 6f bd c0 d9 a6 3b b9 34 90 3d
       0.1537374 -0.058572385 0.005091876 0.07041306
000030 73 d5 e4 bd 5f 93 61 3c ba 10 a4 3c 2b 10 ca 3d
       -0.11173525 0.013768046 0.020027507 0.09866365
000040 d7 e6 0c be 7f 84 af 3d bb 36 aa bd e2 18 22 be
       -0.13759933 0.085701935 -0.0831122 -0.15829805
000050 3f 8f 0f 3e 4a eb 4a 3d 34 e5 a9 3d 0f 74 ee 3d
       0.14019488 0.049540795 0.0829567 0.1164323
000060 a1 f8 20 be 24 2a 00 be 2f fb 37 3d 80 ee 0b be
       -0.15719844 -0.12516075 0.04491728 -0.136652
000070 3e b2 77 be 17 d4 05 be 8f d2 d8 3d 40 cf 59 bb
       -0.24189088 -0.13069187 0.10587036 -0.0033235103
000080 c6 c4 cd bd 2a 38 8d bd b0 e6 86 3c 6e 7d 58 be
       -0.10047297 -0.06895478 0.016467422 -0.21141598
000090 e7 ac b1 bd 1c b5 cf 3d ea 8b 35 be de c7 21 be
       -0.08675557 0.10141966 -0.17729154 -0.157989
0000a0 1d 28 4e 3d 82 71 b0 3d dc 44 84 3d 73 39 16 be
       0.050331224 0.086154 0.064584464 -0.14670353
0000b0 32 89 9d 3d 99 10 ba bd 75 20 57 be 06 bd 2e 3d
       0.076921836 -0.09085197 -0.21008475 0.042660736
0000c0 9d ab 21 be e8 c2 5b bd 7d ab 01 3d bb 48 36 be
       -0.15788122 -0.053652674 0.031657685 -0.17801182
0000d0 eb 55 05 bc 8b 63 cc 3a fb 46 dd bd 64 6a 34 3d
       -0.00813816 0.0015593631 -0.10804554 0.044046775
0000e0 7e 07 60 bd 1d 48 b9 bd 67 8d 79 bb 64 71 39 be
       -0.054694645 -0.09046958 -0.0038078667 -0.18109661
0000f0 4a 1c ca 3d 51 52 04 bd ba 22 57 be 60 3d c1 bd
       0.09868677 -0.032305066 -0.21009341 -0.094355345
000100 6e 5c 14 be 68 e5 81 3d f5 35 2a bd f1 92 40 3c
       -0.14488384 0.06342584 -0.041555364 0.011753784
000110 4b 90 d3 3c 9a 88 d2 3d e9 d1 b7 3d 07 cf ce 3d
       0.02582564 0.10279961 0.08975584 0.10098081
000120 71 62 25 3d 79 aa 4b be 82 93 3e 3c 8a 43 cd 3d
       0.040377084 -0.19889249 0.011631848 0.10022648
000130 84 9c b2 bd 40 ab 70 3d 72 fb 17 be a6 28 d5 bd
       -0.08721259 0.058757067 -0.14842013 -0.10408144
000140 d4 02 56 bd 76 1e 3a be fd e3 82 bd 65 fb 22 be
       -0.05224879 -0.18175682 -0.063911416 -0.15916212
000150 32 8c 13 3e 5b 52 bb bd ae 13 3e 3e 32 b5 3d be
       0.14408949 -0.091465674 0.18562195 -0.18526152
000160 41 9c 4d be 83 17 2e be 90 15 0c bd ab 54 07 3e
       -0.20079137 -0.17001157 -0.03420025 0.13215892
000170 7e 97 bf bd 15 da a3 bc 05 c4 f1 bd 1d 80 75 bd
       -0.09355067 -0.02000145 -0.11804966 -0.05993663
000180 b9 63 01 3e d0 16 6d be 51 28 2a 3d 06 99 00 3d
       0.12635697 -0.23153234 0.041542355 0.031395935
000190 08 37 2e be 78 6c 2c be 9a 0b 8f 3c 43 a5 c9 bd
       -0.1701318 -0.16838253 0.017461587 -0.09845974
0001a0 8f 9e 61 3e 86 3e 07 be ed 0d c6 be 4a bc 38 bc
       0.22033142 -0.13207445 -0.386825 -0.01127536
0001b0 60 9d 0f be a2 7f 1f be 0e 9e f5 bd de 7d 0c 3d
       -0.14024878 -0.15576032 -0.11993037 0.034299724
0001c0 bb e4 fb bd bb d9 f5 bc 1b e7 b3 bd a2 bf 60 be
       -0.12299486 -0.030011049 -0.08784314 -0.21948102
0001d0 36 65 77 be c0 9c 82 be 86 63 82 bd 88 e6 08 be
       -0.24159703 -0.25510216 -0.06366639 -0.1336919
0001e0 5c 42 09 3e e1 1d 4f 3d d1 cd 0b be 14 71 3d be
       0.1340422 0.050565604 -0.13652731 -0.18500167
0001f0 02 9e b9 3c bd 98 06 bc b1 82 f7 bd aa f9 45 bd
       0.022658352 -0.008215127 -0.12085474 -0.0483338
000200 cb 82 9b 3d c8 15 be bd b4 cd e0 bd a3 9b 4b bd
       0.07593306 -0.09281498 -0.10976735 -0.049708974
000210 05 ea 2e bb 14 ba 03 3d 0d 81 8f be 95 f9 98 be
       -0.002668978 0.03215988 -0.28028145 -0.29877916
000220 78 cc 7c bc 7f e2 07 be dc cf 68 be 51 87 05 3e
       -0.0154296085 -0.13269995 -0.22735542 0.130399
000230 85 f2 5e be 96 04 3e bd 7b 27 c4 3e b0 48 44 3c
       -0.21772201 -0.046391092 0.3831137 0.011980221
000240 7f 9a 26 3e d7 6e 36 be b0 be be bd 9c e3 ba 3b
       0.16269873 -0.1781572 -0.093137145 0.0057034027
000250 73 ff 40 3e 41 b5 96 bd 7e 9e 0c be a3 1b 24 bd
       0.18847446 -0.0735879 -0.13732335 -0.04006542
000260 e1 55 29 3e af b8 9c bd 0c ae 59 bd 9e f1 d3 bd
       0.16536666 -0.07652413 -0.0531445 -0.10348819
000270 e8 0e 02 3d 89 7d 15 be 65 ba 57 be ba 7e 28 be
       0.031752497 -0.14598669 -0.21067198 -0.16454592
000280 db b7 cd be 0f e8 5d 3e 56 69 0d be 3e b8 74 be
       -0.40179333 0.21670555 -0.13809714 -0.23898408
000290 71 f5 f3 3d de 7e 3f 3e cf 59 07 bd d3 93 64 3c
       0.119120486 0.1870074 -0.033044633 0.01395126
0002a0 ad 5f a8 3d 08 9e 1a bd a3 25 ae 3c 1f 00 f9 3d
       0.08221374 -0.037748367 0.021258181 0.12158226
0002b0 84 fc bb 3d d6 f9 1f 3e ba e3 48 3e 31 d2 55 be
       0.09179023 0.15622649 0.19618121 -0.20880963
0002c0 e0 30 63 bd 4e e8 5b bd 00 9d b2 3c 11 b9 89 3c
       -0.055466533 -0.05368834 0.021803379 0.01681188
0002d0 68 8d ad bd 46 2f 2b be c2 3a 8f be 07 96 59 be
       -0.08474237 -0.16717252 -0.27974516 -0.21248637
0002e0 a0 15 f9 bd 04 1d 29 3e c9 cb 0f be 96 de 0a 3e
       -0.12162328 0.16514975 -0.14042582 0.13561472
0002f0 9d 05 bd bc d3 12 55 bd 51 2a 4c be 4f e1 9a 3c
       -0.023073966 -0.052019905 -0.19938017 0.018906264
000300 48 10 64 3e d7 d1 f3 bd 68 37 69 3e 5d 86 82 be
       0.22271836 -0.11905258 0.22775042 -0.25493136
000310 c0 3a 67 3d 95 9a e1 bd 9a ed a6 be 57 1e 9b be
       0.056452513 -0.11015812 -0.3260315 -0.30296585
000320 7b 23 bd 3d b1 15 f7 bd cd a6 1a 3d 76 a0 56 bd
       0.09235283 -0.12064684 0.03775673 -0.05239912
000330 25 4e 9a be 0c 56 bf 3d 6e b9 fa bc 83 17 b9 3c
       -0.30137745 0.09342584 -0.030605998 0.02259422
000340 3c 7d e6 3d c9 78 3e be 00 81 92 3a 42 62 34 bf
       0.11254355 -0.18600763 0.0011177361 -0.7046243
000350 1c 4b de 3d 35 5d 81 3e 88 aa b3 be 42 08 3b be
       0.1085417 0.25266424 -0.35091043 -0.18264869
000360 68 5f 00 bd c1 34 bb 3c d1 11 50 be 30 e7 d8 3d
       -0.031340986 0.022852303 -0.20319296 0.105909705
000370 00 99 28 3c 64 aa 9a be da 97 3f be c9 47 eb bd
       0.010290384 -0.30208123 -0.1871027 -0.11488301
000380 2f 65 95 be 0f 56 a4 3d 49 5f a2 bf 7c 60 fc bd
       -0.2917876 0.08024227 -1.2685329 -0.123230904
000390 ec 62 4d 3e c8 55 23 3d 78 6d 08 3d 96 d9 a6 be
       0.20057267 0.03987673 0.033307523 -0.3258788
0003a0 e5 c9 65 3e 60 e0 8a 3b 2a 89 7c 3e a4 f2 43 3e
       0.22440298 0.0042381734 0.24661699 0.19135529
0003b0 43 5b 2e 3e 16 56 01 be ac 8f ce bd e2 9f 01 be
       0.17027001 -0.12630495 -0.10085997 -0.12658647
0003c0 63 bc 29 bd c6 0c 2e bf fb 8b 86 be 12 68 cf 3c
       -0.041439425 -0.6798824 -0.26278672 0.02531818
0003d0 49 3f 25 bf c2 a1 6d 3c 68 d2 42 3e 17 d8 6c be
       -0.6454969 0.014503898 0.19025576 -0.23129307
0003e0 e8 e5 b1 bd ed 61 d7 bf 20 a8 81 3c 3f cf 88 be
       -0.08686429 -1.682676 0.015827239 -0.26720616
0003f0 72 c9 00 bf 6b 27 97 be 80 8e a6 3d 55 0d 60 3d
       -0.5030738 -0.2952226 0.081326485 0.054700214

sequential_20/dense_75/MatMul;StatefulPartitionedCall/sequential_20/dense_75/MatMul f4 [100, 100]
000000 36 6a 71 bd d4 e3 1e 3e eb aa f0 bc 25 19 03 be
       -0.05893918 0.15516597 -0.029378375 -0.1280256
000010 ef cd fb bd 3a 35 12 3e 63 27 54 3c 60 d9 56 be
       -0.12295138 0.14278117 0.012948844 -0.2098136
000020 15 32 d7 3d 74 3f 37 3d 7d bd 2c be 96 5f 06 3e
       0.10507599 0.044738248 -0.16869159 0.131224
000030 38 c9 b3 bd 9a ee 73 3d 68 00 8f 3d 1c 51 8e 3d
       -0.08778614 0.05955372 0.06982499 0.06949064
000040 a0 cd 2e be 24 ea 0f 3e 29 89 86 be e6 6f 8c 3d
       -0.17070627 0.14054161 -0.2627652 0.068572804
000050 74 e5 fa 3c 76 16 50 bd 4b ea ed 3c 92 27 14 3e
       0.03062699 -0.05080267 0.029042384 0.1446822
000060 da 08 18 3d e9 ee 44 be 70 09 ff bc 71 28 bd bc
       0.037117817 -0.19231762 -0.03113243 -0.023090573
000070 15 7b e6 3b e6 70 f5 3d 1c bb 1c 3e 60 52 22 3e
       0.0070337155 0.11984424 0.15305752 0.15851736
000080 06 6f 54 be 40 c0 76 bc 78 15 d8 bd e7 5a 11 bd
       -0.20745477 -0.015060484 -0.1055097 -0.03548708
000090 30 77 09 bd 4e 8e c8 bd 3b 53 01 be a2 b1 11 be
       -0.03356093 -0.097927675 -0.12629406 -0.14227918
0000a0 39 37 da bd b6 e2 2d be a9 45 aa bc 0f 97 8f bc
       -0.10655064 -0.16981015 -0.02078517 -0.017528085
0000b0 6e c3 6f be bf 1e 02 be 3b 8e 10 bd cf 17 26 3d
       -0.23414394 -0.12707041 -0.03529189 0.04055005
0000c0 41 a9 0a be fe 60 8f 3b f4 2c 24 3e ba 9c 4c bd
       -0.13541128 0.004375576 0.16032773 -0.049954154
0000d0 90 32 49 3c e7 ef 9b bc 2b 17 19 be d0 00 07 bc
       0.012280121 -0.019035293 -0.14950244 -0.00823994
0000e0 33 1b 50 3d f2 df 66 3b ce 55 1f be 33 5b a2 bd
       0.05080719 0.0035228697 -0.15560076 -0.07927551
0000f0 74 b7 a7 bd 9a 43 de bd 1d d1 5b 3d 58 53 e5 3c
       -0.08189288 -0.10852738 0.053666223 0.027993843
000100 e4 3f 38 be 40 66 d7 3d aa 6e 1c 3e 28 2a 14 be
       -0.17993122 0.105175495 0.1527659 -0.14469206
000110 7e 26 00 3e 82 f9 fe bb 51 e1 21 be ec d7 e5 bd
       0.12514684 -0.0077812085 -0.15808608 -0.112228245
000120 bc 0b 7f bd b9 7c 2b be 6e 2f 2f be 60 32 c9 3b
       -0.06226705 -0.16746797 -0.17107937 0.0061400384
000130 66 1a c5 bd 22 97 25 3e c6 8e 2c be 89 b6 2a be
       -0.09624176 0.16170934 -0.16851339 -0.16671194
000140 df c7 17 be 2c ae 2e 3d 11 16 f9 bd ee cb b3 bd
       -0.14822339 0.042646572 -0.12162412 -0.08779131
000150 27 76 8d 3c 52 89 39 be e8 64 37 be 22 e0 b9 bd
       0.017268253 -0.1811879 -0.17909586 -0.09075953
000160 1d fc e1 bd 56 02 19 3c 32 1f 9a 3d b4 31 fa 3d
       -0.11034415 0.009338936 0.07525481 0.12216511
000170 f9 39 a9 3c 03 62 b1 3d d4 8b b5 bd 12 27 18 3d
       0.020657526 0.086612724 -0.08864561 0.037146635
000180 af 41 ab 3d 67 b5 e7 3d a6 0e fb bd ec eb 6a bd
       0.083621375 0.113138966 -0.12258653 -0.0573539
000190 80 eb 31 3e 3c b8 e5 3e 11 ad 41 3e 33 f8 1f 3d
       0.17374992 0.44867122 0.18913676 0.03905506
0001a0 79 a4 06 3d c5 1d d0 3d 90 77 94 be a6 4e 85 be
       0.032871697 0.10161928 -0.2899747 -0.26036566
0001b0 f1 20 0b 3e 98 3b 20 3f 8d e2 68 3d 90 33 92 3e
       0.13586785 0.6259093 0.05685668 0.28554964
0001c0 72 c5 f4 3c 6b 43 09 3e 92 32 8f bd 64 74 8d be
       0.029879306 0.13404624 -0.069920674 -0.27627861
0001d0 74 99 0b bc f4 d6 cc 3d 74 01 5c 3e ea 80 d1 3e
       -0.008520473 0.100019366 0.2148493 0.40918666
0001e0 08 00 03 bf cf 23 a7 3e a9 8a 44 3d 75 4f bc 3c
       -0.5117192 0.32644507 0.0479838 0.022987107
0001f0 5f ba 8c be 26 db a9 bd 80 e2 19 3e ce c5 e6 be
       -0.2748594 -0.08293752 0.15027809 -0.45072788
000200 f1 a5 7c 3e 99 5f 59 3e 3d ee c4 3e 99 6b 4d be
       0.24672677 0.21227874 0.3846301 -0.20060576
000210 5e 6f 07 bd 8c 9c 2b 3e 60 83 7e 3d 95 7e 3a 3b
       -0.033065192 0.16758937 0.062137008 0.0028456796
000220 35 b6 8c 3e 69 09 ef 3e c0 db f1 bd 22 b6 ad 3d
       0.27482763 0.46686867 -0.11809492 0.08482005
000230 65 f9 b6 3e 5c ee 2e bf db d9 62 3e cb bd d4 bd
       0.35737148 -0.6833246 0.22153418 -0.10387763
000240 8c 32 c5 3d 04 0d 3c 3d 55 b3 cd 3e 5b 9a 54 bd
       0.09628782 0.04591085 0.40175882 -0.051905017
000250 70 95 99 3e 70 20 84 3e b0 77 e4 bd 1e b4 b0 bb
       0.29996824 0.25805998 -0.11155641 -0.0053925654
000260 35 7b fb 3d 85 33 0e 3e 4d 16 f7 be e6 5a ca bd
       0.12279359 0.1388684 -0.48259202 -0.09880619
000270 f2 bd 46 3e 6f c9 13 3e 46 94 0a 3e 4d c9 05 3e
       0.19408396 0.1443231 0.13533124 0.13065071
000280 d2 ec 5a bf 2d 69 a9 be 68 a6 a7 bd 8c a0 99 be
       -0.8551761 -0.33088055 -0.08186036 -0.300053
000290 39 39 07 bf 1d 23 cd 3d 1a ae 33 be 7a 02 33 bd
       -0.5282169 0.10016463 -0.17546883 -0.043703534
0002a0 1b 14 42 3e 1f df 0c bf 54 65 a9 3d c2 18 71 3d
       0.18952982 -0.55027956 0.0827128 0.0588615
0002b0 6b e3 73 3d db 57 a6 3d 5b 0f 8f 3e 42 57 8f 3d
       0.059543055 0.08122226 0.27941403 0.06999065
0002c0 42 d5 03 3f 49 0d e2 be 48 d8 dd be d7 30 49 be
       0.5149728 -0.4415076 -0.43329072 -0.19647537
0002d0 bb 0d c1 3d fd b4 38 bd ca 69 61 bd ec 46 0b bf
       0.09426447 -0.04509448 -0.05503253 -0.54405093
0002e0 8b 28 79 3c fd 01 ad be e4 4b 5c bd 1d fd 1f bd
       0.01520742 -0.3379058 -0.053783312 -0.039059747
0002f0 22 e8 1c 3d 9a b0 b1 be 3a a1 16 be 27 95 a5 bd
       0.038307317 -0.3470505 -0.1470994 -0.08085089
000300 60 0a 94 bd c5 2f ea bb 71 94 f5 be 88 01 98 bc
       -0.072285414 -0.007146808 -0.47964814 -0.018555418
000310 9c 56 5d 3e 5f 3a f8 bc 5e 16 9b bc 15 f5 0e 3f
       0.2161507 -0.030301271 -0.018931564 0.55842716
000320 4d bd 20 be 1a 59 eb bd fe 5f ba 3e 29 ee 82 be
       -0.15697213 -0.11491604 0.3640136 -0.25572327
000330 87 28 1a bf 18 91 d7 3d 4e 7c 28 be 0e c1 0d bf
       -0.6021809 0.10525721 -0.16453668 -0.55372703
000340 d7 5a 0c 3e e9 6c 0c 3c 56 62 f1 be 29 03 02 bd
       0.13706528 0.008570888 -0.47145337 -0.031741295
000350 2c dd 44 3e cb 72 35 3f 1b a4 ad bd c9 a4 30 bd
       0.19224995 0.70878285 -0.08478566 -0.0431259
000360 bd 7e 42 be 53 06 c5 bd 57 84 de bd 7d 02 08 bf
       -0.1899366 -0.09620347 -0.108650856 -0.53128797
000370 f8 6a b3 be 01 1f ac 3d bf ed 02 bf 63 7b 6c 3e
       -0.35042548 0.08404351 -0.5114402 0.23093943
000380 85 c2 1e bf 5f da 69 bd dc 1e 94 be 55 9b 91 3e
       -0.62015563 -0.05709302 -0.28929794 0.2843882
000390 19 8c 16 be 72 b0 cc bd b3 9e d7 3c a2 72 10 3e
       -0.1470188 -0.09994592 0.02632079 0.14106229
0003a0 e0 44 a8 be 98 b9 fd 3d 74 32 40 be 82 24 b0 3e
       -0.32865047 0.12388915 -0.18769246 0.34402853
0003b0 c1 6a 31 be 66 a2 ad bd 2a a4 45 be 41 7e 27 3e
       -0.1732588 -0.08478241 -0.19300905 0.16356756
0003c0 fd db 81 3e c8 f0 92 3c 04 f6 6a 3e 93 dc c1 be
       0.2536315 0.01793708 0.2294541 -0.37863597
0003d0 91 dd e8 3d 95 a4 41 3d d3 8e 3c be 88 91 f7 3d
       0.113703854 0.0472761 -0.18413858 0.12088305
0003e0 70 60 8c 3e 8e 15 ef 3d 14 d9 2b be 4e 9b 17 be
       0.27417326 0.11674033 -0.16782027 -0.14805338
0003f0 22 da 79 3e 5f c1 fb bc c2 07 c5 bc 27 e6 34 3e
       0.24399617 -0.030731855 -0.02405155 0.17665921

sequential_20/dense_76/MatMul;StatefulPartitionedCall/sequential_20/dense_76/MatMul f4 [8, 100]
000000 2e 9b 9d bd 4d 56 70 be 23 41 8d be 20 df 3c bf
       -0.07695614 -0.23470421 -0.27588758 -0.7377796
000010 c8 93 70 be 03 61 5a be 51 62 31 3e db be 27 bf
       -0.23493874 -0.2132607 0.17322661 -0.655256
000020 1f e7 66 bf bb f9 c8 bf 3b 66 fc be 46 34 17 3e
       -0.9019641 -1.5701212 -0.49296746 0.14766034
000030 2e 38 7b bd dc de d5 be 11 3f 6d bf 58 b2 43 3e
       -0.061332874 -0.4177159 -0.92674357 0.19111001
000040 31 96 40 bf 03 8f 82 be 18 34 d4 3e d7 54 5c bd
       -0.75229174 -0.25499734 0.41445994 -0.053791847
000050 35 d1 ad bd be 6d 96 be d1 e7 b3 bf 16 87 dd 3c
       -0.08487169 -0.29380602 -1.405512 0.027041953
000060 aa 11 11 3e 76 f7 86 bf 54 e3 80 bf 5b 62 02 3e
       0.14166895 -1.0544269 -1.0069375 0.12732832
000070 2e 13 38 bf 1b ff 3a be ec 1b c7 bd a1 92 c9 be
       -0.71904266 -0.18261378 -0.097221226 -0.3936968
000080 bd ee 70 3e 85 e7 3c bf 5c 19 32 bf 5c d1 1f bf
       0.23528571 -0.7379077 -0.69569945 -0.6242883
000090 6b 43 d7 be fe db c0 be 67 5c b2 bd be ec 27 be
       -0.42043623 -0.3766784 -0.087090306 -0.16398904
0000a0 c4 25 5a 3d c6 9f 29 be ba 22 92 be 3f 98 32 bf
       0.053258672 -0.16564855 -0.2854212 -0.6976356
0000b0 7f ee 3b 3e 90 c2 df be 9d 6c ea bd d9 e7 66 3d
       0.18352698 -0.43703127 -0.114464976 0.05637345
0000c0 21 f1 0d 3e 18 de 25 be d5 bc 24 bf d9 e7 a3 be
       0.13861515 -0.16198003 -0.64350635 -0.32012823
0000d0 47 71 70 3d f8 db 2c be bb 26 2a 3e d6 23 3c be
       0.05870178 -0.16880786 0.16616337 -0.18373045
0000e0 24 9d cf bd 1c a7 d3 be 23 bb 70 3d cc af 03 bf
       -0.10137394 -0.41338432 0.058772217 -0.5144012
0000f0 0c bf 60 bf 33 d6 a8 be f6 77 e4 3d f1 bc 62 bf
       -0.87791514 -0.3297592 0.11155693 -0.8856955
000100 a2 29 be bf 6d 5b c2 3d f5 77 83 3b 7c 57 0e bf
       -1.4856455 0.09490094 0.0040121027 -0.5560224
000110 c0 07 b8 be 91 af 8d be e5 f6 fa be cd 0a 9f bf
       -0.35943413 -0.2767301 -0.4901649 -1.2425171
000120 06 ab 87 be 02 94 41 3d 92 d6 8b 3e ef bb 3a 3d
       -0.26497668 0.047260292 0.27312142 0.045589384
000130 3a 12 49 bf 5f 3f d3 be 2d 07 91 3e 31 46 e9 3d
       -0.78543437 -0.41259286 0.28325787 0.11390341
000140 52 f2 42 3d cd e3 9b bd 8d b7 14 3e 88 af 3f bf
       0.047594376 -0.07611809 0.14523144 -0.74877214
000150 a2 a9 1f 3e cb 26 25 bf f1 b7 34 bf 74 7d cd 3d
       0.15592054 -0.6451232 -0.7059317 0.10033694
000160 05 44 86 3d 06 48 06 bf 48 b0 f4 3e ca b2 22 3e
       0.065559424 -0.5245365 0.47790742 0.15888515
000170 8f dd 1d be af b6 1e bf 80 40 1a c0 fc 3e 6f 3e
       -0.15416549 -0.61997503 -2.4101868 0.2336387
000180 f2 01 45 3e a9 b8 9d bd 03 c4 a0 3e f0 c0 28 be
       0.19239023 -0.07701237 0.31399545 -0.1647985
000190 74 4f 38 3e e3 f7 3e 3e 1f 49 c7 be 6b 6d 8b bf
       0.17999059 0.18649249 -0.38922974 -1.0892767
0001a0 71 0e 45 3e 32 a5 6a bd d2 5d 30 3e d9 33 41 3e
       0.1924379 -0.05728645 0.1722329 0.18867435
0001b0 05 1c 58 bd 54 68 8f bf f0 ae 82 3d f4 d5 f7 be
       -0.052761097 -1.1203713 0.06381023 -0.4840542
0001c0 f1 a2 78 bd ce f6 b3 bd 26 49 a7 be a6 71 74 3e
       -0.060702268 -0.08787309 -0.32672995 0.23871478
0001d0 bf 78 f0 bf 27 6d cd bd 80 88 07 bf 97 2e 67 3e
       -1.8786849 -0.10030585 -0.5294266 0.22576366
0001e0 90 a3 62 be 22 b8 61 3e b8 53 74 bf 92 79 f1 be
       -0.22132707 0.22042897 -0.95440245 -0.47163063
0001f0 07 90 6c be 80 05 e6 bc 9b eb 9e be 16 0f 29 3d
       -0.23101817 -0.028078794 -0.31039128 0.041274153
000200 de b0 76 3e 5d c0 d9 3d a9 e1 db bd 41 03 69 3e
       0.24090907 0.106323935 -0.10736401 0.22755148
000210 1a 9a 4e 3e 5e 8f 24 bf f9 ec 9d 3e db 4b 33 bd
       0.20175973 -0.6428126 0.30844858 -0.043773513
000220 68 9b 7d 3e 60 1c 76 be 46 9c 90 be 5b ef 2f 3e
       0.24766314 -0.24034262 -0.28244227 0.1718115
000230 87 3b 01 3e b3 92 01 bf 5c 90 b0 be ad 4b b4 bc
       0.12620364 -0.5061447 -0.34485137 -0.022008741
000240 ae c9 25 3c 57 4c 3a 3d 32 cb 58 bf b3 75 c1 3d
       0.010118885 0.04548296 -0.8468505 0.094462775
000250 ad be 97 bd 66 68 4e be a5 53 be be ef f3 a8 bd
       -0.074094154 -0.20157012 -0.3717319 -0.08249652
000260 08 41 02 3e 72 d5 bd bd 8d 0d 12 3e 8f 85 5d bf
       0.1272012 -0.09269227 0.14262982 -0.8653192
000270 01 0c a9 3d 04 98 b3 3d 7c 9e b1 3e 10 b4 b6 3d
       0.08254243 0.08769229 0.34691226 0.08921063
000280 d8 71 95 3d aa 54 8c bd 53 54 af be 0c be 3c be
       0.072971046 -0.06852086 -0.34244022 -0.18431872
000290 98 e1 77 be 03 fd 46 bf 8b 0a 2c 3d 75 81 1b 3d
       -0.24207151 -0.77729815 0.042002242 0.037965257
0002a0 d4 e6 a9 bf eb 65 27 bd 1e 27 fe be 81 39 67 3e
       -1.3273568 -0.04086868 -0.4963922 0.2258053
0002b0 8b b8 5c 3c 78 a7 fc be 33 7e 14 3e df cb 2d bf
       0.013471733 -0.4934652 0.14501266 -0.6788921
0002c0 84 1f 60 be 49 a5 70 be ff 08 40 bf d3 26 6a bd
       -0.21887022 -0.23500551 -0.75013727 -0.057165932
0002d0 49 f2 91 be 54 bf b9 be 5c a5 18 bf 67 0a 43 3e
       -0.2850516 -0.36278784 -0.5962732 0.19046937
0002e0 8b 76 1e bd 98 32 fc 3c 3b f4 50 bf 5a 50 0d bf
       -0.03868727 0.030785844 -0.81622666 -0.5520073
0002f0 e9 36 87 bf bd 31 22 3e e8 7d 2c 3e 5e 19 12 bd
       -1.0563632 0.15839286 0.16844904 -0.035668723
000300 0d da 14 3e 4c 50 09 3d 60 72 14 bd 03 51 a4 bd
       0.14536305 0.033523843 -0.03624189 -0.08023264
000310 01 85 33 bf 5b 36 20 3d 9a d8 e2 be 9d 81 5b be
       -0.7012482 0.039114337 -0.4430588 -0.21436162
000320 60 56 95 3d 2f 12 09 bf bb 9b 44 3d 6b 29 49 3e
       0.07291865 -0.5354337 0.04800008 0.19644706
000330 86 24 97 bf 8a 79 a7 be 40 be 54 bd c1 e7 5e c0
       -1.1808021 -0.32709914 -0.05193925 -3.4828951
000340 cf 7f 22 bf 13 f6 5e 3e 2b 5f a7 be 89 c5 aa 3e
       -0.6347627 0.21773557 -0.32689795 0.33353832
000350 7e 65 61 bd 6d 62 00 be 6d 39 1c 3e 65 cb 9b bd
       -0.05502843 -0.12537546 0.15256281 -0.07607154
000360 6b 35 23 3d 6e 87 43 3d 6a b5 2e 3e c1 b5 af 3d
       0.039845865 0.047736578 0.17061391 0.08579589
000370 a0 8a 60 3e b6 9a 07 c0 0d 7a 30 bf 70 8a 09 bf
       0.21927881 -2.1188178 -0.68936235 -0.53726864
000380 11 c6 7d 3e ed 0b 5d 3e 04 18 3a bf 81 78 9f bf
       0.24782588 0.2158658 -0.72692895 -1.245865
000390 b6 75 45 bf 2c 13 30 bd ee a7 bd be 7c 79 10 bf
       -0.7713274 -0.042987034 -0.37042183 -0.5643537
0003a0 68 31 0c bf 3d 2d 78 be 5d ee c3 3c 9a 1d 3f bf
       -0.5476289 -0.24236007 0.023917371 -0.74654543
0003b0 ba b3 93 be 30 07 70 bf 67 7e bb be c4 50 1d bf
       -0.28848058 -0.9376097 -0.36619875 -0.61451364
0003c0 14 7d 82 be 2d 61 81 bf f2 00 03 bf 34 ab 0f bf
       -0.25486052 -1.0107781 -0.5117332 -0.5612061
0003d0 79 e3 30 3d 6b 0c 65 3e 32 19 50 be 1a 83 fa be
       0.043185685 0.22368018 -0.20322111 -0.48928148
0003e0 d7 15 aa bd 73 23 97 3d 95 c1 1e be 21 28 de be
       -0.08304947 0.07379808 -0.15503533 -0.4338999
0003f0 50 0a 42 3e 19 03 a2 3e 04 3f 7f bf c3 7d 9a 3d
       0.18949246 0.31642988 -0.9970553 0.075435184
